…
INFO flwr 2023-04-07 20:47:15,227 | server.py:88 | Evaluating initial parameters
INFO flwr 2023-04-07 20:47:15,227 | server.py:101 | FL starting
DEBUG flwr 2023-04-07 20:47:15,227 | server.py:220 | fit_round 1: strategy sampled 2 clients (out of 2)
Files already downloaded and verified
  0%|          | 0/1563 [00:00<?, ?it/s]Files already downloaded and verified
ðŸ’»  Model Summary: 
----------------------------------------------------------------
        Layer (type)               Output Shape         Param #
================================================================
            Conv2d-1            [-1, 6, 28, 28]             456
         MaxPool2d-2            [-1, 6, 14, 14]               0
            Conv2d-3           [-1, 16, 10, 10]           2,416
         MaxPool2d-4             [-1, 16, 5, 5]               0
            Linear-5                  [-1, 120]          48,120
            Linear-6                   [-1, 84]          10,164
            Linear-7                   [-1, 10]             850
================================================================
Total params: 62,006
Trainable params: 62,006
Non-trainable params: 0
----------------------------------------------------------------
Input size (MB): 0.01
Forward/backward pass size (MB): 0.06
Params size (MB): 0.24
Estimated Total Size (MB): 0.31
----------------------------------------------------------------
None
ðŸŒ  Subscribing to FL Server 127.0.0.1 on Port 8080
…
